UDP_jetson/Custom_model_fin.pth (torch_old, 46423 bytes, 14 tensors)

weight f4 [40, 5]
-0.017671404 0.02475528 -0.3525514 1.0772446 1.1525115 0.017817723 0.020442482 -0.08524116
-0.96417964 0.98136 0.202053 -0.14703082 -0.16337046 0.24909261 0.14764963 -0.43000984
-0.07392381 0.106020324 0.02076878 0.124198526 -0.29605186 0.04304791 -1.1286699 0.12955216
0.5669209 0.06254338 -0.05023269 -1.1561772 0.43970257 0.446269 0.20161541 0.06274462
-0.19807419 0.101611756 -0.6701802 -0.11412786 0.006210643 -0.94593686 -0.32828245 -0.48517054
-0.18726921 -0.074724436 0.091854475 -0.05471591 0.35290295 -0.36440283 -0.13370642 -0.06272683
-0.3952953 0.14025016 -0.07111693 0.26979232 -0.21913174 0.12610503 0.16497606 0.109367445
-0.013271881 0.73536086 0.029131325 -0.23798132 -0.1035687 -0.0040059295 -0.30125356 -0.36064616
-0.299406 -0.382914 0.11654939 0.12798555 -0.3946217 -0.06503571 -0.2755988 0.020554462
0.030700395 0.009732158 -0.4864656 -0.29109743 0.17828281 0.043736126 0.35554338 0.06256921
0.07059866 0.15963912 -0.4889745 -0.72157824 -0.061498072 -0.059125796 -0.20789152 0.6181599
0.14924027 0.3468051 0.06805777 0.027836502 -0.8284225 0.51615906 0.21267621 -0.28205612
0.23088777 0.19045198 0.0021258616 0.077689186 -0.030686658 0.31874794 0.48822227 -0.057272498
-0.1372104 -0.12445814 0.011127792 -0.69768506 -0.30315387 0.66733927 -0.16570643 0.036541753
1.1652578 -0.08135852 -0.32892853 -0.31922773 0.05707771 0.38911012 0.07826696 -1.0755372
0.19914235 -0.07700466 0.94810456 0.007048654 -0.34127665 -0.2093899 -0.22633028 0.31797123
0.16839634 -0.0013136442 0.055486623 0.056361478 0.11637873 -0.5813537 -1.2577064 0.0076463027
9.9492565e-05 0.0059041516 1.355327 0.07870143 -0.13099504 0.15240926 -0.08600697 -0.18166308
0.13150246 0.16936849 -0.07461937 0.9628022 0.20623665 -0.2891791 0.071815684 0.0816312
1.0014278 0.11288251 -0.032151036 0.019807773 0.12913696 -0.61530435 -0.11031142 0.21252708
0.43645424 0.16563614 -0.5811458 -0.6479772 0.056949466 -0.35404333 0.0023639584 0.078321
-0.05669394 -0.4972747 0.1740214 0.08228711 0.6067821 0.11689237 0.021537269 -0.17094837
-0.014213881 0.18211111 0.4761089 0.0049279686 0.5811118 -0.16275673 -0.6976976 0.06606797
-0.7465238 0.2172819 0.05724311 0.63319695 -0.23153222 0.2868849 0.033999853 0.0021694782
0.043123156 0.001993517 0.046031076 0.13110761 -0.08222922 -1.2360749 -0.339146 -0.5358331
00000000: 9fc3 90bc 96cb ca3c 9e81 b4be 27e3 893f
00000010: 7f85 933f 79f6 913c fe76 a73c eb92 aebd
00000020: 7ad4 76bf 693a 7b3f fbe6 4e3e 3f8f 16be
00000030: 964a 27be 2212 7f3e 7731 173e 402a dcbe
00000040: 5e65 97bd 2f21 d93d 4a23 aa3c cc5b fe3d
00000050: 1c94 97be 0153 303d 4178 90bf 52a9 043e
00000060: ba21 113f be16 803d cbc0 4dbd 9dfd 93bf
00000070: b220 e13e 5f7d e43e 4574 4e3e 4080 803d
00000080: f6d3 4abe d319 d03d ee90 2bbf debb e9bd
00000090: a682 cb3b eb28 72bf a314 a8be 4668 f8be
000000a0: 80c3 3fbe 2009 99bd 331e bc3d ca1d 60bd
000000b0: b2af b43e 0293 babe 56ea 08be ed76 80bd
000000c0: 2564 cabe bd9d 0f3e c1a5 91bd 3822 8a3e
000000d0: 1264 60be ad21 013e 7cef 283e 0afc df3d
000000e0: 4e72 59bc 9c40 3c3f d1a4 ee3c 60b1 73be
000000f0: d41b d4bd 2c44 83bb e83d 9abe 9da6 b8be
00000100: be4b 99be 4e0d c4be 72b1 ee3d a50e 033e
00000110: db0b cabe 7131 85bd 491b 8dbe d561 a83c
00000120: 657f fb3c a173 1f3c 0512 f9be b90a 95be
00000130: c58f 363e a724 333d c809 b63e 4924 803d
00000140: 0896 903d 7078 233e de5a fabe 5ab9 38bf
00000150: 67e5 7bbd e42d 72bd 84e1 54be ba3f 1e3f
00000160: 71d2 183e 7090 b13e df61 8b3d 6009 e43c
00000170: 7f13 54bf 0023 043f cbc7 593e a969 90be
00000180: d86d 6c3e d805 433e 0a52 0b3b 821b 9f3d
00000190: 9662 fbbc ee32 a33e 45f8 f93e 9196 6abd
000001a0: e280 0cbe e9e3 febd 5851 363c 7d9b 32bf
000001b0: fc36 9bbe bfd6 2a3f f2ae 29be ceac 153d
000001c0: 2b27 953f 4c9f a6bd 5269 a8be d171 a3be
000001d0: 51ca 693d 7139 c73e 6e4a a03d 34ab 89bf
000001e0: f9eb 4b3e 9fb4 9dbd fbb6 723f 65f8 e63b
000001f0: d0bb aebe 4e6a 56be 20c3 67be 20cd a23e
00000200: 1770 2c3e 962e acba f145 633d 4bdb 663d
00000210: f957 ee3d 99d3 14bf 86fc a0bf d68d fa3b
00000220: aaa6 d038 9d77 c13b 5b7b ad3f 372e a13d
00000230: 9023 06be 2c11 1c3e 6c24 b0bd e305 3abe
00000240: 95a8 063e ef6e 2d3e 0ad2 98bd 347a 763f
00000250: b32f 533e 480f 94be 1a14 933d 422e a73d
00000260: c92e 803f f22e e73d ceb0 03bd e943 a23c
00000270: 7b3c 043e 9684 1dbf f4ea e1bd b3a0 593e
00000280: ee76 df3e 859c 293e f9c5 14bf d5e1 25bf
00000290: d843 693d 2b45 b5be a4ec 1a3b c366 a03d
000002a0: e837 68bd ca9a febe aa32 323e 2586 a83d
000002b0: 1256 1b3f 4465 ef3d ed6e b03c 170d 2fbe
000002c0: 57e1 68bc 567b 3a3e 8cc4 f33e cc7a a13b
000002d0: bec3 143f b3a9 26be 4f9c 32bf a54e 873d
000002e0: 2f1c 3fbf 257f 5e3e c077 6a3d 3219 223f
000002f0: c816 6dbe 94e2 923e 6e43 0b3d ce2d 0e3b
00000300: e8a1 303d aaa5 023b 158b 3c3d 1341 063e
00000310: cb67 a8bd b437 9ebf 8ba4 adbe 5c2c 09bf

bias f4 [40]
0.116657354 0.09689754 -0.15253976 -0.29914236 0.38689688 0.29734284 -0.32568172 0.2011757
0.21445179 -0.29145974 -0.19355227 0.25331637 -0.16221586 0.10082588 -0.15338235 0.15487103
0.36335212 0.36740616 0.19050947 -0.10817292 -0.26325485 0.20784704 0.24348247 0.42282197
0.35461926 0.14833193 0.021912806 0.013728793 -0.09923146 0.2739974 0.34311655 -0.0006305654
0.36086732 -0.0946585 -0.33080706 -0.14762437 -0.28024182 0.03841783 -0.18396202 0.031002332
00000000: 0dea ee3d 3872 c63d 6233 1cbe 3029 99be
00000010: 5917 c63e 523d 983e c1bf a6be 0101 4e3e
00000020: 4099 5b3e 363a 95be 9132 46be afb2 813e
00000030: ea1b 26be cd7d ce3d 4310 1dbe 8396 1e3e
00000040: 4a09 ba3e a91c bc3e ea14 433e c489 ddbd
00000050: 57c9 86be dbd5 543e 7853 793e 1f7c d83e
00000060: a890 b53e 53e4 173e 7c82 b33c bbee 603c
00000070: dd39 cbbd 6349 8c3e f9ac af3e 874c 25ba
00000080: 9ac3 b83e 51dc c1bd 8b5f a9be d82a 17be
00000090: db7b 8fbe 045c 1d3d 8a60 3cbe 9af8 fd3c

weight f4 [40, 40]
-0.00045563283 -0.13017038 0.20715803 -0.05176634 -0.2980023 -0.15562983 -0.051930796 0.05554796
-0.1320891 -0.054714583 -0.014280168 0.4157309 -0.012114644 -0.19351076 -0.12618548 0.19848566
0.015951866 0.21998698 -0.2644062 0.05531666 -0.16342732 0.002109008 0.24534646 0.27320516
0.21027131 -0.09810651 0.1938589 -0.21445154 0.090693586 0.3096565 0.27183703 -0.001396716
0.15393306 0.07567998 -0.011407812 0.11683746 -0.039896216 0.041389056 -0.073485516 -0.47788018
-0.03853318 -0.13191687 -0.15933761 -0.19838944 0.4536315 0.38374496 0.03866514 0.6160298
-0.12074254 -0.105708346 0.03494976 0.055138662 0.008212152 -0.24431224 -0.0178786 0.06344931
-0.047262184 -0.14878255 0.5350151 -0.092902206 -0.027402293 -0.015572692 -0.3381363 0.15083061
-0.049238544 -0.109324746 -0.11746684 -0.1726668 0.13769116 -0.15779628 -0.40311983 -0.02629493
0.19149755 -0.4309942 -0.21299115 -0.03808902 0.39887768 -0.20769201 -0.15176176 0.42873168
-0.04870156 0.030440839 -0.051744714 -0.016272493 -0.077802 -0.057452284 0.0210816 0.029439079
0.049990904 0.051222138 0.018378017 -0.1193798 -0.03622318 0.069591425 -0.02930297 -0.022883493
-0.0929696 -0.16650037 -0.061937638 0.049529694 0.036585905 -0.063358225 -0.0021913985 0.010940679
-0.33782998 0.028099447 0.050834592 -0.08497595 0.034578085 -0.23777269 -0.12738977 -0.004709688
-0.098628394 -0.038218826 0.026886368 -0.0026378385 -0.15793529 0.0021561582 0.009353692 0.23503923
0.14371537 0.38708475 -0.22015058 0.3954682 0.6241402 0.40231127 -0.08744942 0.19486211
0.32897383 0.14602304 -0.2524226 -0.12646317 0.08275634 -0.20918754 -0.13046539 0.31621215
-0.36352226 -0.0937591 -0.16671725 0.19921628 -0.4434717 0.20762706 -0.08772119 -0.09194256
-0.20734286 0.1213889 -0.22361384 0.21372977 -0.17307772 -0.11091608 0.12856704 0.06824062
0.02998949 0.066612236 -0.12273902 -0.11209773 -0.19556437 -0.095052406 0.12123118 -0.17663139
-0.13183732 -0.2027821 0.032955933 -0.025486521 0.3911901 0.19676794 0.15380655 0.37132445
0.0835222 -0.09971657 0.023851208 0.004145997 -0.024176091 0.3677545 -0.20579675 -0.11414523
-0.10078945 0.101206884 0.1728624 -0.37252247 0.062119454 0.11537956 -0.11684861 0.31345955
0.5255669 -0.08469785 0.18767633 0.062444214 -0.055839054 -0.10726269 -0.07393693 0.29309887
0.2569789 -0.05823648 0.050918724 -0.26424086 -0.067465834 -0.35127774 -0.14140576 0.16832107
0.103047654 0.10952891 0.12701057 0.21119331 -0.010518488 -0.026575629 -0.1346594 0.048088275
-0.14996032 0.25448412 0.038490057 0.08783061 0.108749084 0.13144366 0.08443601 0.033989985
-0.20025223 -0.030606778 0.21148868 -0.06318686 0.019780913 -0.12234169 0.06551353 0.003635741
0.15426984 0.04611077 -0.043300796 0.056175034 -0.038804542 -0.16669227 -0.040878996 0.05685491
0.010814685 0.09356561 -0.014190961 0.19186604 0.082954735 -0.07979702 0.0081367325 0.13265745
0.03840311 0.12284688 -0.04818619 0.002415604 0.036126126 0.012581443 -0.010491516 -0.1473076
0.0105175655 0.014329029 -0.06822559 -0.2203427 -0.010245946 0.010557222 -0.021303566 0.034439903
00000000: 01e2 eeb9 624b 05be 3c21 543e f108 54bd
00000010: c293 98be 6d5d 1fbe 63b5 54bd 4286 633d
00000020: 5d42 07be 661c 60bd 5ef7 69bc aeda d43e
00000030: 807c 46bc af27 46be c436 01be d33f 4b3e
00000040: 7dad 823c 4444 613e 4060 87be b993 623d
00000050: 7e59 27be 4837 0a3b 1a3c 7b3e 8ce1 8b3e
00000060: 5d51 573e 11ec c8bd f382 463e 2f99 5bbe
00000070: 8fbd b93d 4c8b 9e3e 392e 8b3e 0312 b7ba
00000080: a1a0 1d3e 1bfe 9a3d d5e7 3abc 7a48 ef3d
00000090: 376a 23bd 9287 293d 937f 96bd b6ac f4be
000000a0: f8d4 1dbd 3715 07be 6629 23be 9a26 4bbe
000000b0: 6342 e83e 387a c43e 565f 1e3d 21b4 1d3f
000000c0: dd47 f7bd 9e7d d8bd 7b27 0f3d 14d9 613d
000000d0: 438c 063c fd2c 7abe 2476 92bc b6f1 813d
000000e0: fe95 41bd 745a 18be c0f6 083f 8343 bebd
000000f0: c67a e0bc 9b24 7fbc 3320 adbe 5773 1a3e
00000100: 5bae 49bd a7e5 dfbd 7492 f0bd 91cf 30be
00000110: e9fe 0c3e 5995 21be b965 cebe 7768 d7bc
00000120: ef17 443e 46ab dcbe 5a1a 5abe 3b03 1cbd
00000130: b239 cc3e 37ad 54be 6f67 1bbe b882 db3e
00000140: 497b 47bd 115f f93c 44f2 53bd e44d 85bc
00000150: a856 9fbd 1653 6bbd 52b3 ac3c 392a f13c
00000160: 43c3 4c3d 4ece 513d 7f8d 963c 667d f4bd
00000170: c25e 14bd f385 8e3d c80c f0bc 2a76 bbbc
00000180: d866 bebd 137f 2abe 52b2 7dbd a6df 4a3d
00000190: 1adb 153d f5c1 81bd 919d 0fbb 8940 333c
000001a0: 0df8 acbe d030 e63c ef37 503d df07 aebd
000001b0: c0a1 0d3d af7a 73be 7772 02be ba53 9abb
000001c0: affd c9bd 588b 1cbd cd40 dc3c 96df 2cbb
000001d0: cab9 21be 554e 0d3b 3a40 193c 20ae 703e
000001e0: 1f2a 133e f92f c63e 276f 61be cf7a ca3e
000001f0: a7c7 1f3f befb cd3e ae18 b3bd ef89 473e
00000200: 426f a83e 1087 153e 893d 81be 907f 01be
00000210: 287c a93d 4235 56be b898 05be 8fe6 a13e
00000220: 971f babe c504 c0bd edb7 2abe 5aff 4b3e
00000230: b90e e3be 309c 543e 2ba7 b3bd 624c bcbd
00000240: b051 54be be9a f83d 07fb 64be fadb 5a3e
00000250: 493b 31be f827 e3bd 14a7 033e bdc1 8b3d
00000260: 85ac f53c ff6b 883d 985e fbbd 7f93 e5bd
00000270: 0742 48be d6aa c2bd 0e48 f83d dcde 34be
00000280: 5d00 07be 1ca6 4fbe cdfc 063d 1cc9 d0bc
00000290: 124a c83e 897d 493e 777f 1d3e 3d1e be3e
000002a0: b00d ab3d 3338 ccbd 9c63 c33c 25db 873b
000002b0: f00c c6bc 514a bc3e 62bc 52be f9c4 e9bd
000002c0: b36a cebd 8e45 cf3d d702 313e 44bb bebe
000002d0: f870 7e3d 1e4c ec3d 534e efbd c57d a03e
000002e0: 8d8b 063f 1176 adbd 392e 403e 81c5 7f3d
000002f0: 7eb7 64bd 8bac dbbd 3f6c 97bd 0e11 963e
00000300: bd92 833e 6089 6ebd 2790 503d 944a 87be
00000310: 872b 8abd adda b3be accc 10be 5c5c 2c3e
00000320: a60a d33d b150 e03d 0f0f 023e 0f43 583e
00000330: bc55 2cbc 22b5 d9bc 27e4 09be 36f8 443d
00000340: 338f 19be be4b 823e c0a7 1d3d 89e0 b33d
00000350: d7b7 de3d 2b99 063e c9ec ac3d 1539 0b3d
00000360: ec0e 4dbe 11bb fabc 7d90 583e 1d68 81bd
00000370: 950b a23c 488e fabd f52b 863d 9d45 6e3b
00000380: eaf8 1d3e a6de 3c3d 2d5c 31bd cb17 663d
00000390: 83f1 1ebd 61b1 2abe bc70 27bd b2e0 683d
000003a0: 1430 313c 549f bf3d 3481 68bc 8878 443e
000003b0: 2ce4 a93d 9f6c a3bd ee4f 053c 5bd7 073e
000003c0: 944c 1d3d 2597 fb3d e25e 45bd 1c4f 1e3b
000003d0: fdf8 133d 6622 4e3c 9ce4 2bbc ced7 16be
000003e0: de51 2c3c 4ec4 6a3c dcb9 8bbd 84a1 61be
000003f0: 9dde 27bc 33f8 2c3c d184 aebc db10 0d3d

bias f4 [40]
0.1822288 0.16970396 -0.17376268 0.030851102 0.21074668 -0.05275864 -0.11175797 0.045505222
-0.21464236 0.0018755586 -0.093199864 0.14585947 0.28788465 -0.07611296 0.07140064 -0.15564358
0.0678818 -0.09912357 -0.07844318 -0.07225131 -0.049585395 0.18214896 -0.2205767 -0.00025733
-0.11597908 -0.07147232 -0.06605762 -0.09704388 0.026270054 -0.03564626 -0.11200748 -0.17890471
-0.09828611 -0.1256799 -0.061006796 -0.028741118 -0.068578444 -0.15587609 0.13214381 0.15395585
00000000: 309a 3a3e e0c6 2d3e d8ee 31be 73bb fc3c
00000010: facd 573e 7219 58bd 5de1 e4bd af63 3a3d
00000020: 35cb 5bbe 4ed5 f53a 92df bebd 2f5c 153e
00000030: 9e65 933e 1de1 9bbd 803a 923d 0861 1fbe
00000040: 9d05 8b3d 4c01 cbbd d1a6 a0bd 7ff8 93bd
00000050: 0e1a 4bbd 4285 3a3e dcde 61be 3fea 86b9
00000060: 7186 edbd 1460 92bd 3849 87bd f1be c6bd
00000070: 4c34 d73c d001 12bd 2d64 e5bd cc32 37be
00000080: 3a4a c9bd 3bb2 00be 43e2 79bd 7e72 ebbc
00000090: db72 8cbd fb9d 1fbe b550 073e 9aa6 1d3e

weight f4 [20, 40]
0.17842098 -0.4168099 -0.07516216 -0.283644 0.092324026 0.008587189 -0.108369514 0.28192833
0.55505043 0.29168075 -0.25591442 -0.35460356 -0.077359684 0.088338874 0.13054891 0.09810506
0.43165696 0.455317 -0.048860442 0.037880458 -0.06044955 0.26711276 0.777476 -5.2422827e-05
0.12802817 0.06511594 -0.13903722 -0.13110508 -0.017965313 0.2736745 0.20469059 0.22412775
0.16823694 -0.28278893 -0.049170144 0.026057495 0.22566433 -0.16833869 -0.35347655 0.38254535
-0.3068442 0.47295073 -0.13008371 0.33097798 0.24969056 0.1001473 -0.13475657 0.5259021
0.19452639 0.12938507 0.74549234 -0.214045 0.46125907 0.23344986 0.33977383 0.016910765
-0.13487898 -0.15010206 -0.024713198 0.3271139 0.4722119 -0.51541597 -0.19220108 0.00023851519
-0.19510722 -0.15100004 0.0023182116 -0.23997219 -0.17427725 0.15349974 0.4166997 0.06111161
-0.17834261 0.27771434 -0.010626576 0.19291995 -0.14313644 -0.42085248 -0.5385458 -0.17656341
0.5814689 -0.3608304 -0.06439912 -0.38916355 0.015363532 0.008079164 -0.056850348 -0.3117412
-0.42087793 0.26360893 -0.47625563 0.06525148 0.33662498 -0.10273671 0.031391926 -0.07383717
-0.100689605 -0.22678854 -0.37255776 -0.06376368 -0.3931364 0.3555735 -0.011207428 0.0001830464
-0.1569248 0.118937485 -0.09086421 -0.006704946 -0.4031632 0.009076031 -0.12441501 -0.242237
-0.226856 0.0886413 0.09541229 -0.09555001 -0.008015655 -0.11214532 0.12118338 0.25962216
0.6014408 0.18650703 0.009718134 -0.04951459 0.27758232 -0.352861 0.018052474 -0.22051325
-0.16488004 0.20299183 -0.27264166 0.039341327 0.5293304 0.011064262 -0.119352415 0.1406668
-0.04339181 0.32914874 -0.46582955 -0.19765612 0.07550652 0.13134292 -0.272841 0.0002120477
-0.19573013 -0.2688625 -0.33668056 -0.014635138 0.040982757 0.63731945 0.18481602 -0.034158822
-0.092002936 -0.07052714 0.028388664 -0.08641852 -0.040504448 0.35583246 0.24569468 -0.0767792
0.41748223 -0.043030515 -0.13093254 0.28788862 0.028213385 -0.07837556 -0.014456191 -0.05013147
-0.18816951 -0.014394273 -0.3956849 -0.33129022 0.23145626 -0.106808506 -0.22576201 -0.08241796
0.07196038 -0.01512682 -0.11700487 -0.18913418 0.074834704 0.036261667 -0.046925105 7.705327e-05
-0.2803892 -0.016865237 -0.09620746 0.03178969 -0.021346895 -0.43264225 -0.12247657 -0.04450847
-0.2906682 -0.051171727 -0.028438946 0.019988634 -0.07321658 0.09757105 -0.05064153 -0.13897285
-0.13056952 -0.004812987 -0.2877898 -0.25201133 0.18351924 0.4299553 0.06896505 0.106902234
0.47467703 0.10145196 0.2086679 -0.21131852 -0.10231184 0.09661409 0.06730853 -0.25945818
-0.08508234 -0.0052798777 0.07989394 -0.14954042 -0.10959054 0.19062628 0.018445656 4.491033e-05
0.114636324 -0.10345254 0.0017710526 -0.0127228005 -0.018402021 0.26326892 0.14686091 0.14760895
0.036356676 0.048209593 0.055414315 -0.04909411 0.109805875 0.048924703 0.18689388 0.4879357
0.21964945 -0.272293 -0.5308953 0.28991705 0.54536235 0.082658604 0.05130951 -0.30662543
-0.100602046 -0.47197223 -0.62109923 0.33488962 0.40220472 -0.19928004 -0.18344378 -0.18754022
00000000: fdb3 363e 1b68 d5be 9eee 99bd c939 91be
00000010: 6114 bd3d 48b1 0c3c d6f0 ddbd e958 903e
00000020: c917 0e3f 2e57 953e 3707 83be 998e b5be
00000030: c16e 9ebd 03eb b43d 9dae 053e 4eeb c83d
00000040: 2402 dd3e 4f1f e93e e321 48bd 8a28 1b3d
00000050: f399 77bd 01c3 883e ab08 473f 95e0 5bb8
00000060: d119 033e 825b 853d c65f 0ebe 6940 06be
00000070: fe2b 93bc 101f 8c3e 699a 513e bf81 653e
00000080: 4e46 2c3e b6c9 90be a266 49bd 8776 d53c
00000090: 8d14 673e fa60 2cbe e1fa b4be fcdc c33e
000000a0: af1a 9dbe 9926 f23e aa34 05be f275 a93e
000000b0: e2ae 7f3e 071a cd3d a0fd 09be 85a1 063f
000000c0: ed31 473e 857d 043e 96d8 3e3f 9d2e 5bbe
000000d0: 262a ec3e 7b0d 6f3e d6f6 ad3e 7288 8a3c
000000e0: b71d 0abe 5bb4 19be 5573 cabc 797b a73e
000000f0: c2c5 f13e 4df2 03bf 5cd0 44be ef19 7a39
00000100: 30ca 47be c19f 1abe 23ed 173b 45bb 75be
00000110: bc75 32be 092f 1d3e aa59 d53e 2b50 7a3d
00000120: 729f 36be 9330 8e3e 171b 2ebc cf8c 453e
00000130: 5c92 12be fa79 d7be 23de 09bf 0acd 34be
00000140: 25db 143f c3be b8be b0e3 83bd 7240 c7be
00000150: 53b7 7b3c 785e 043c e9db 68bd 8b9c 9fbe
00000160: 507d d7be c0f7 863e c7d7 f3be 91a2 853d
00000170: 1c5a ac3e a067 d2bd d294 003d f137 97bd
00000180: 5a36 cebd 413b 68be e4bf bebe 8896 82bd
00000190: 2d49 c9be bb0d b63e 5c9f 37bc 25f0 3f39
000001a0: e5b0 20be 7f95 f33d 0417 babd 2ab5 dbbb
000001b0: 686b cebe a2b3 143c 4ccd febd fa0c 78be
000001c0: f04c 68be 9289 b53d 8567 c33d b9af c3bd
000001d0: 1854 03bc 72ac e5bd fe2e f83d 32ed 843e
000001e0: 06f8 193f b3fb 3e3e cf38 1f3c d0cf 4abd
000001f0: 451f 8e3e 32aa b4be c8e2 933c 3ace 61be
00000200: 50d6 28be 17dd 4f3e b097 8bbe 5f24 213d
00000210: 3282 073f e146 353c 0a6f f4bd f50a 103e
00000220: 9cbb 31bd 2f86 a83e 3681 eebe 5e66 4abe
00000230: 2aa3 9a3d c27e 063e d1b1 8bbe 1f59 5e39
00000240: 7b6d 48be 58a8 89be 6561 acbe 38c8 6fbc
00000250: 89dd 273d 5e27 233f 6940 3d3e 1fea 0bbd
00000260: 096c bcbd 8870 90bd 588f e83c 31fc b0bd
00000270: fee7 25bd ac2f b63e 6397 7b3e 6a3e 9dbd
00000280: 3bc0 d53e c440 30bd 2e13 06be 2366 933e
00000290: c21f e73c 5e83 a0bd a9d9 6cbc a856 4dbd
000002a0: 82af 40be f5d5 6bbc 3697 cabe df9e a9be
000002b0: df02 6d3e 6bbe dabd 282e 67be bfca a8bd
000002c0: f75f 933d 7bd6 77bc 40a0 efbd 64ac 41be
000002d0: f042 993d 1d87 143d 8a34 40bd a997 a138
000002e0: 2c8f 8fbe f728 8abc 6b08 c5bd e835 023d
000002f0: afdf aebc 4983 ddbe ffd4 fabd 834e 36bd
00000300: 76d2 94be 7299 51bd cbf8 e8bc 34bf a33c
00000310: 93f2 95bd 55d3 c73d 7e6d 4fbd e64e 0ebe
00000320: 04b4 05be 43b6 9dbb 2f59 93be a107 81be
00000330: 78ec 3b3e 1a23 dc3e 8c3d 8d3d 8fef da3d
00000340: de08 f33e 0cc6 cf3d 0aad 553e e263 58be
00000350: df88 d1bd 9cdd c53d 0ed9 893d b4d7 84be
00000360: a63f aebd d302 adbb 6f9f a33d 2021 19be
00000370: 0171 e0bd 8933 433e 581b 973c 1a5e 3c38
00000380: 73c6 ea3d edde d3bd aa22 e83a 4b73 50bc
00000390: d6bf 96bc 2fcb 863e b562 163e cd26 173e
000003a0: bdea 143d 6c77 453d 1ffa 623d e816 49bd
000003b0: e7e1 e03d 4565 483d 1c61 3f3e b5d2 f93e
000003c0: c9eb 603e fd69 8bbe c1e8 07bf 0270 943e
000003d0: de9c 0b3f ea48 a93d ec29 523d 02fe 9cbe
000003e0: 7208 cebd 58a6 f1be 5c00 1fbf a776 ab3e
000003f0: c7ed cd3e 1110 4cbe b0d8 3bbe 8b0a 40be

bias f4 [20]
-0.1766584 0.09077266 0.22863083 0.018466681 0.24831806 -0.10133524 0.12502109 0.010765234
0.121183924 -0.17238778 0.15683803 0.051588446 0.09727312 0.121176206 0.1449775 -0.16125554
-0.0032944381 0.01038034 -0.046236128 0.057453014
00000000: f1e5 34be 04e7 b93d 331e 6a3e 7047 973c
00000010: 1747 7e3e da88 cfbd 8705 003e aa60 303c
00000020: 472f f83d 6c86 30be 269a 203e 684e 533d
00000030: 2137 c73d 3b2b f83d fb74 143e 2c20 25be
00000040: 80e7 57bb 4d12 2a3c 1862 3dbd da53 6b3d

weight f4 [20, 20]
0.60887533 0.6166104 0.3340105 -0.15118362 -0.35068467 0.5851527 -0.103727184 -0.31374928
0.10099883 0.32696906 -0.29003385 -0.07473336 0.17421259 0.06194458 -0.13903186 -0.41357106
0.22059591 -0.10221908 0.6323252 -0.58180493 -0.33192593 -0.0090751955 0.13088109 -0.030308668
0.2695131 -0.21189116 0.38553265 0.02160306 -0.008251969 -0.10785613 0.44169888 0.18111297
-0.021338467 0.03496788 0.31578526 0.09792309 -0.27347788 0.2125681 -0.288669 0.055849984
-0.32925534 0.15654272 -0.10405783 0.027900904 0.12177058 0.18117523 0.44911757 -0.13613588
0.60906684 -0.08964795 -0.39307544 0.3628945 0.31377262 0.26790267 0.18949302 0.42582718
0.039192583 0.3063026 -0.43767613 -0.25248504 -0.7886686 0.6809507 0.22708736 0.13624416
0.11693114 -0.27894086 0.30332398 -0.33168325 0.60610557 -0.20823525 0.57781905 0.24470584
-0.016470278 -0.17519535 -0.041947503 -0.16310975 -0.97326165 0.5115631 0.35021847 -0.035363283
0.023414379 0.014086159 0.15440881 -0.04295726 -0.024133231 0.039708793 -0.294836 0.04869113
-0.013738924 -0.05313926 0.04065913 -0.0041626086 0.003968474 0.008092586 -0.0421854 0.0037070126
0.10979503 0.010858497 0.1861138 -0.023480814 0.004067909 -0.03228355 0.06309013 -0.08403378
-0.056089785 -0.035278127 -0.027967628 0.009894796 -0.04058394 -0.10297733 -0.085770115 0.026565943
0.0063599832 0.0072383597 -0.025138773 0.011109772 0.13989507 0.019231904 -0.05150427 -0.04780137
-0.25214285 0.23066571 -0.23536572 0.14054593 0.25424752 -0.29890114 0.008547515 -0.32724547
-0.26121145 -0.12782231 0.048974644 -0.13944192 -0.014692749 0.07170776 0.23434025 -0.09678976
0.042962905 -0.23102976 0.018526701 -0.24208747 0.36588278 -0.67444766 -0.17185664 0.3850371
-0.042744916 0.17319168 -0.017720472 0.69463825 -0.60273814 -0.20236646 0.23787294 -0.48055327
0.018101156 -0.09451451 -0.17099477 0.23228844 0.115206994 -0.42148125 0.2864918 0.74671406
-0.044889662 -0.039131377 0.06878543 0.2063166 0.4200759 0.22523983 0.134323 0.34991613
-0.36224505 -0.44117993 -0.014036689 -0.20752746 0.021602262 -0.1449243 -0.39436337 -0.054563407
-0.14928451 -0.28151074 0.27677837 -0.07824511 0.0010238885 0.020890096 -0.0022196078 0.007857964
0.011418465 -0.0110571515 -0.020648483 -0.023177821 -0.008837981 0.012144697 0.003767214 -0.022655062
0.0023192433 -0.0005527912 -0.04121816 -0.005710788 0.036680542 0.0031156768 0.09112264 0.00042779464
-0.16433513 -0.16139732 0.38092962 0.065284654 0.06960151 -0.15280038 0.90630305 -0.31765503
-0.27336973 0.013136402 0.17733043 -0.07177004 -0.022236707 0.020226521 0.36899292 0.010770451
0.4525329 -0.3784994 -0.1172154 0.30200756 -0.148777 0.21648152 0.03370582 -0.22913094
-0.48118106 0.12877446 0.0645527 -0.02393097 0.39834812 -0.4072174 -0.019220958 0.34442928
-0.025089772 -0.07552351 0.45461988 -0.080758795 -0.3537857 0.038819972 -0.21282917 0.06702748
0.0936174 0.19662984 0.0815017 0.37200698 0.615269 -0.08243183 -0.069429114 0.14322533
0.3217257 -0.18106766 -0.6367052 -0.061710484 0.09764117 0.049720205 0.3038148 -0.014062786
00000000: 41df 1b3f 2eda 1d3f 6d03 ab3e e1cf 1abe
00000010: f18c b3be 91cc 153f eb6e d4bd bfa3 a0be
00000020: 79d8 ce3d 7d68 a73e 517f 94be ce0d 99bd
00000030: c964 323e 9ab9 7d3d 5e5e 0ebe 96bf d3be
00000040: e5e3 613e 3d58 d1bd 10e0 213f 2bf1 14bf
00000050: 32f2 a9be 21b0 14bc b105 063e e249 f8bc
00000060: 9ffd 893e fff9 58be 8964 c53e e7f8 b03c
00000070: 4433 07bc ade3 dcbd 5b26 e23e ae75 393e
00000080: 02ce aebc 7b3a 0f3d 9bae a13e e78b c83d
00000090: 4b05 8cbe 74ab 593e 6ccc 93be f4c2 643d
000000a0: 2894 a8be bc4c 203e 461c d5bd 7090 e43c
000000b0: db62 f93d 0086 393e bdf2 e53e 3467 0bbe
000000c0: ceeb 1b3f 5899 b7bd 2f41 c9be 4fcd b93e
000000d0: cea6 a03e 8a2a 893e 750a 423e 0506 da3e
000000e0: 6788 203d b2d3 9c3e 1617 e0be b845 81be
000000f0: 2fe6 49bf c952 2e3f 9789 683e 9783 0b3e
00000100: 9879 ef3d 56d1 8ebe 484d 9b3e 63d2 a9be
00000110: bc29 1b3f 9f3b 55be f3eb 133f 2b94 7a3e
00000120: adec 86bc 6966 33be 25d1 2bbd 3e06 27be
00000130: ad27 79bf cdf5 023f d64f b33e 17d9 10bd
00000140: 83cf bf3c a2c9 663c 581d 1e3e f4f3 2fbd
00000150: 0eb3 c5bc b0a5 223d bff4 96be 5a70 473d
00000160: 3919 61bc 8da8 59bd 308a 263d 7e66 88bb
00000170: f909 823b c496 043c 99ca 2cbd 5af1 723b
00000180: 37dc e03d d6e7 313c 9e94 3e3e d65a c0bc
00000190: 184c 853b c13b 04bd 6635 813d e719 acbd
000001a0: 67be 65bd cc7f 10bd 5e1c e5bc c81d 223c
000001b0: 583b 26bd c7e5 d2bd 3ea8 afbd d2a0 d93c
000001c0: 6867 d03b c32f ed3b d4ef cdbc c305 363c
000001d0: a740 0f3e 3a8c 9d3c 24f6 52bd 5fcb 43bd
000001e0: de18 81be a233 6c3e b603 71be 46eb 0f3e
000001f0: bb2c 823e 9209 99be e00a 0c3c b88c a7be
00000200: 82bd 85be dae3 02be a399 483d ddc9 0ebe
00000210: dbb9 70bc 85db 923d e4f6 6f3e b639 c6bd
00000220: dff9 2f3d 1193 6cbe 4fc5 973c c7e5 77be
00000230: fd54 bb3e 9aa8 2cbf 30fb 2fbe 9523 c53e
00000240: 4b15 2fbd 2959 313e 862a 91bc d0d3 313f
00000250: 0c4d 1abf 2739 4fbe f794 733e 140b f6be
00000260: e048 943c d390 c1bd 4119 2fbe 05dd 6d3e
00000270: a5f1 eb3d 64cc d7be 0eaf 923e a728 3f3f
00000280: 39de 37bd 3948 20bd 60df 8c3d a944 533e
00000290: 3014 d73e 45a5 663e f88b 093e 3528 b33e
000002a0: 2f78 b9be 56e2 e1be 24fa 65bc 1482 54be
000002b0: 3af7 b03c 0967 14be ffe9 c9be e17d 5fbd
000002c0: 0ade 18be 2d22 90be e5b5 8d3e f93e a0bd
000002d0: ff33 863a b521 ab3c d776 11bb b1be 003c
000002e0: 8314 3b3c 0e29 35bc 0227 a9bc 6adf bdbc
000002f0: 2ecd 10bc 8dfa 463c 5de3 763b 1c97 b9bc
00000300: 72fe 173b 31e9 10ba 60d4 28bd 9021 bbbb
00000310: 563e 163d 6230 4c3b 829e ba3d a049 e039
00000320: 7847 28be 5745 25be 3509 c33e f6b3 853d
00000330: 3d8b 8e3d b477 1cbe 7a03 683f aea3 a2be
00000340: 1ef7 8bbe 103a 573c 1c96 353e 2cfc 92bd
00000350: c129 b6bc 17b2 a53c a4ec bc3e 8c76 303c
00000360: 64b2 e73e acca c1be a10e f0bd bca0 9a3e
00000370: ff58 18be 55ad 5d3e 1d0f 0a3d 4da1 6abe
00000380: 5d5d f6be 74dd 033e 3534 843d e20a c4bc
00000390: 49f4 cb3e cd7e d0be 4575 9dbc 0959 b03e
000003a0: 1189 cdbc 12ac 9abd f0c3 e83e de64 a5bd
000003b0: 6623 b5be b101 1f3d e4ef 59be b445 893d
000003c0: 7bba bf3d 5559 493e 5dea a63d b377 be3e
000003d0: 4582 1d3f 05d2 a8bd da30 8ebd a9a9 123e
000003e0: 3bb9 a43e cd69 39be 1dff 22bf 22c4 7cbd
000003f0: 18f8 c73d 6aa7 4b3d 9d8d 9b3e 9967 66bc

bias f4 [20]
-0.03160006 -0.099703826 0.09817792 0.2251178 0.035019398 -0.049748253 0.023630466 0.1426835
-0.18703479 -0.015043736 0.111430764 -0.07142008 0.13311817 0.0444133 0.17085548 -0.014837902
-0.019840486 -0.11176023 0.07178331 -0.22926252
00000000: 116f 01bd 8531 ccbd 8111 c93d 4885 663e
00000010: 8070 0f3d d3c4 4bbd ae94 c13c a01b 123e
00000020: 0c86 3fbe 017a 76bc d035 e43d b144 92bd
00000030: 2150 083e b8ea 353d bdf4 2e3e ac1a 73bc
00000040: 8488 a2bc 8ce2 e4bd 2103 933d cbc3 6abe

weight f4 [60, 20]
-0.38139924 -0.026496056 0.16761765 0.09554872 -0.02919316 0.013584666 0.14439271 0.24112031
-0.015789445 -0.037520204 0.19545162 0.29592732 -0.04561206 -0.070917524 -0.13040437 0.22942644
0.082734376 0.01400216 -0.11632605 0.155283 0.026398795 -0.04944072 0.066772245 -0.2622401
0.024096409 0.0059616175 -0.081204586 0.013129651 0.14483452 0.008610616 -0.016431103 0.010692792
0.06193632 -0.0646087 -0.061471567 -0.07615351 0.21391201 -0.04139809 -0.016658204 -0.06915701
-0.1605926 0.083808064 -0.0793332 0.2466797 -0.02695213 -0.0065156342 0.0038979892 0.01656118
-0.0533383 -0.010038643 -0.050252385 -0.03290908 -0.0681043 0.018161923 0.16149758 -0.04679414
-0.1148119 -0.05584911 -0.05505848 -0.011486206 -0.37226132 0.30424228 0.051731434 0.12826473
-0.057732604 -0.01155917 0.15904982 0.084576845 0.0071983756 -0.052514665 0.06888227 0.077152126
0.12229852 0.27355194 -0.076313965 0.0935061 -0.12718055 -0.17070311 -0.04488634 0.14945279
0.2948391 -0.014443003 -0.071030326 -0.07469889 0.062276527 -0.071966715 0.104174 -0.25870016
-0.19685505 0.032154337 0.06759801 -0.2558425 -0.23844671 0.28768185 0.023377575 -0.54536194
-0.19840203 -0.45794055 0.17501055 -0.6526558 0.14959727 -0.10116413 0.047511265 0.0036137889
0.01016075 0.0051163267 -0.03947185 0.021897253 -0.1071256 0.0017042392 0.0651537 0.020468572
-0.030653901 -0.076486446 -0.21888353 0.058746997 -0.09736202 0.13508523 -0.0046260892 0.057098795
0.08222382 -0.094956495 -0.15474512 0.02256674 0.005704662 -0.0018272215 -0.015518623 0.10959414
-0.05754735 -0.002102755 0.002011831 0.004295148 -0.12331741 -0.07984063 -0.11019704 -0.0118003795
-0.113848634 0.014009586 0.035093132 -0.002646521 0.022771932 -0.016296918 0.0107190525 -0.05957024
0.0056614014 0.002885246 -0.0031645426 -0.009747147 0.015082881 0.00047459334 -0.021962926 0.035696678
0.06431107 0.008491268 -0.009049538 0.0072377594 0.004811077 0.026439445 -0.014295261 0.0052558365
-0.6899826 0.2520499 0.11637311 -0.026517097 -0.15947402 -0.10478178 -0.19551809 0.45323142
0.07782764 -0.07728812 0.42863527 -0.019352563 -0.15333913 0.20626383 -0.01951106 -0.0181798
0.23658404 -0.13166046 0.029008951 -0.0009949199 8.4720145e-05 -8.687506e-05 8.679978e-07 -5.7718713e-05
2.2462551e-05 -6.274139e-06 -4.4081116e-05 -3.9615814e-05 -8.220125e-06 3.370185e-06 -8.193449e-05 -7.511201e-07
-1.9080326e-05 -2.353185e-05 -1.4524062e-05 -1.6875149e-05 -6.0851344e-05 -2.999377e-05 8.2300845e-05 -6.742379e-05
-0.55275595 0.012134729 0.25427508 -0.33310825 -0.03712377 -0.006958883 0.025416488 0.18012154
0.060304992 -0.036942765 0.15351477 0.02733245 0.12882951 0.035320587 0.2814341 -0.030200783
0.13868074 -0.12569988 -0.0905269 -0.0147042535 -0.08647433 0.1010993 0.28133175 0.09719797
-0.06227854 -0.04381744 0.047150265 -0.4775083 -0.08772895 -0.045058373 -0.13486373 0.049168743
0.16803822 -0.043541756 -0.06869916 0.32201096 -0.09902985 -0.1438546 0.051625893 0.13877194
-0.19070385 -0.29289895 0.10548749 0.054355796 0.010733406 -0.028956339 -0.03919911 -0.128345
0.20567963 0.03017002 -0.62860376 0.21401553 0.2146122 -0.06839069 0.024806203 0.37278223
00000000: c346 c3be 420e d9bc f6a3 2b3e 0caf c33d
00000010: 7e26 efbc 3892 5e3c afdb 133e 3ee8 763e
00000020: de58 81bc c9ae 19bd 7824 483e c983 973e
00000030: b6d3 3abd 353d 91bd b988 05be c4ee 6a3e
00000040: a470 a93d 5169 653c 5a3c eebd 8202 1f3e
00000050: 4942 d83c 5a82 4abd e3bf 883d 5644 86be
00000060: d565 c53c ac59 c33b 974e a6bd bf1d 573c
00000070: 804f 143e 8b13 0d3c 859a 86bc d230 2f3c
00000080: f0b0 7d3d 9151 84bd 9cc9 7bbd 5ff6 9bbd
00000090: c00b 5b3e 0b91 29bd c976 88bc 31a2 8dbd
000000a0: 6372 24be 90a3 ab3d 7279 a2bd 9a99 7c3e
000000b0: b7ca dcbc 1a81 d5bb 6875 7f3b 50ab 873c
000000c0: 4379 5abd 1f79 24bc 72d5 4dbd accb 06bd
000000d0: 447a 8bbd 50c8 943c 9f5f 253e 36ab 3fbd
000000e0: 8022 ebbd 09c2 64bd 0085 61bd a430 3cbc
000000f0: 0999 bebe a5c5 9b3e 57e4 533d d457 033e
00000100: 0679 6cbd ac62 3dbc f5dd 223e a036 ad3d
00000110: 5ae0 eb3b 9e19 57bd 2612 8d3d ef01 9e3d
00000120: a577 fa3d 000f 8c3e 7f4a 9cbd 2080 bf3d
00000130: 9e3b 02be cccc 2ebe bdda 37bd 270a 193e
00000140: 27f5 963e 58a2 6cbc 5978 91bd bbfb 98bd
00000150: ac15 7f3d 4963 93bd 2e59 d53d 5974 84be
00000160: 5f94 49be 44b4 033d d370 8a3d cafd 82be
00000170: 602b 74be 094b 933e 5482 bf3c d79c 0bbf
00000180: e729 4bbe 2f77 eabe f735 333e 7314 27bf
00000190: 0730 193e 242f cfbd 2c9b 423d 51d5 6c3b
000001a0: 4679 263c dca6 a73b 3cad 21bd de61 b33c
000001b0: ab64 dbbd c760 df3a 4e6f 853d b5ad a73c
000001c0: e41d fbbc eda4 9cbd 0123 60be b1a0 703d
000001d0: bd65 c7bd c853 0a3e 7396 97bb 6de0 693d
000001e0: f664 a83d 8d78 c2bd 8175 1ebe e2dd b83c
000001f0: 2cee ba3b 617f efba d341 7ebc e472 e03d
00000200: c5b6 6bbd 60ce 09bb ecd8 033b 50be 8c3b
00000210: d78d fcbd 7c83 a3bd fcae e1bd 6156 41bc
00000220: 7929 e9bd 7688 653c d1bd 0f3d 4171 2dbb
00000230: 348c ba3c 1d81 85bc f79e 2f3c edff 73bd
00000240: 4783 b93b 6516 3d3b 3764 4fbb 7fb2 1fbc
00000250: 301e 773c d7d2 f839 98eb b3bc ae36 123d
00000260: 86b5 833d f61e 0b3c 8344 14bc ba2a ed3b
00000270: 3da6 9d3b 8997 d83c ac36 6abc 2739 ac3b
00000280: b3a2 30bf af0c 813e 0655 ee3d 623a d9bc
00000290: 284d 23be d497 d6bd e535 48be f30d e83e
000002a0: 1964 9f3d 3c49 9ebd 1576 db3e 4489 9ebc
000002b0: ef04 1dbe d336 533e a9d5 9fbc ceed 94bc
000002c0: 1643 723e 00d2 06be 2ea4 ed3c f967 82ba
000002d0: c8ab b138 b130 b6b8 5b00 6935 ff16 72b8
000002e0: f66d bc37 7286 d2b6 bde3 38b8 2829 26b8
000002f0: 2be9 09b7 562b 6236 3fd4 abb8 95a0 49b5
00000300: b00e a0b7 4366 c5b7 5fac 73b7 1b8f 8db7
00000310: a23a 7fb8 219b fbb7 ee98 ac38 df65 8db8
00000320: 6a81 0dbf bed0 463c 5830 823e 2a8d aabe
00000330: 180f 18bd 5707 e4bb 3d36 d03c c871 383e
00000340: 5e02 773d 4c51 17bd fa32 1d3e 4de8 df3c
00000350: e2eb 033e 52ac 103d 2118 903e a267 f7bc
00000360: 5302 0e3e 78b7 00be 2b66 b9bd 1cea 70bc
00000370: 7419 b1bd 260d cf3d b70a 903e bb0f c73d
00000380: c817 7fbd ea79 33bd a320 413d f87b f4be
00000390: 3cab b3bd 218f 38bd b819 0abe 2a65 493d
000003a0: 3612 2c3e d758 32bd 25b2 8cbd 9fde a43e
000003b0: 29d0 cabd 9f4e 13be ac75 533d 3b1a 0e3e
000003c0: df47 43be daf6 95be d309 d83d 2fa4 5e3d
000003d0: 2bdb 2f3c d835 edbc 3f8f 20bd df6c 03be
000003e0: ae9d 523e 1e27 f73c 2dec 20bf e326 5b3e
000003f0: 4dc3 5b3e 6b10 8cbd 6136 cb3c 50dd be3e

bias f4 [60]
0.0020174242 -0.12797715 0.116144486 0.06762058 0.3315271 -0.061339866 -0.10132111 0.014862231
0.03868469 -6.806594e-05 0.046803355 0.051460218 -0.26599097 0.24302046 0.03720921 -0.0001227008
0.009093184 0.26926264 -0.00012774287 -0.0838771 0.09135846 -0.056304988 0.011807273 -0.10661563
-0.09793728 -0.015474228 -0.033168346 0.10634042 -0.0002822686 0.059671555 -0.027118765 -0.20927209
0.21496923 0.04684335 -0.048285056 0.047278404 0.08373857 0.046557747 -0.00031425944 0.020888628
0.17147 -0.000113566966 0.07689544 -9.034617e-05 -0.02171985 -0.16070245 0.03292876 0.21313211
-0.0060381433 0.034395453 -0.004917655 -0.16914949 -0.16446117 0.18229759 -0.03366738 -0.06547557
-4.640621e-05 0.05586722 -0.10312355 0.14293976
00000000: c336 043b 710c 03be 29dd ed3d a97c 8a3d
00000010: ecbd a93e 833f 7bbd 7181 cfbd b780 733c
00000020: d673 1e3d a0be 8eb8 e0b4 3f3d f3c7 523d
00000030: f82f 88be 5bda 783e af68 183d 3fa9 00b9
00000040: 94fb 143c cbdc 893e b7f2 05b9 c2c7 abbd
00000050: 251a bb3d 0fa0 66bd 4b73 413c 4c59 dabd
00000060: 5793 c8bd 9e87 7dbc 88db 07bd 02c9 d93d
00000070: 73fd 93b9 296a 743d 2c28 debc 6c4b 56be
00000080: e520 5c3e d0de 3f3d 8dc6 45bd 00a7 413d
00000090: 217f ab3d 56b3 3e3d 30c3 a4b9 a11e ab3c
000000a0: d595 2f3e cd2a eeb8 5b7b 9d3d 3b78 bdb8
000000b0: d4ed b1bc 2f8f 24be 4fe0 063d 4e3f 5a3e
000000c0: 9edb c5bb 3fe2 0c3d 4824 a1bb 8635 2dbe
000000d0: 8268 28be 38ac 3a3e cfe6 09bd 0e18 86bd
000000e0: 4aa4 42b8 07d5 643d 7132 d3bd cd5e 123e

weight f4 [60, 60]
-2.845369e-06 -9.713759e-06 -1.0965405e-05 -1.9873976e-05 -3.193939e-05 -1.3057707e-05 -8.9376335e-06 -2.6564906e-06
-5.6326357e-05 -1.5353359e-09 -5.1735083e-06 -1.1322139e-06 5.752767e-06 1.6251544e-05 1.7564099e-06 -1.0715609e-08
-1.7763176e-06 -5.397465e-07 -3.7147085e-09 -2.4027737e-05 5.2006667e-06 -5.959337e-06 -1.2171994e-05 -1.438151e-06
-8.108685e-06 6.034946e-06 4.4321135e-07 -1.7805953e-05 2.98517e-08 -8.9072455e-06 -1.2739452e-05 8.426e-06
-2.7302582e-05 -2.3247372e-05 2.9307952e-07 3.490829e-06 -2.6688312e-07 -1.50970145e-05 -3.410105e-07 -4.1192703e-05
-4.9732604e-05 -8.4211677e-10 -2.0548245e-05 -1.0562653e-09 -7.3279675e-06 -5.438764e-06 7.0641414e-07 -2.9217146e-05
-2.0991813e-06 -1.4264899e-05 -6.3412945e-06 -3.232459e-06 1.556432e-05 -6.439433e-05 4.545874e-06 8.499192e-06
-7.9701556e-10 -8.652654e-06 -9.129718e-07 -4.8343754e-05 0.079812184 -0.06420705 0.066566914 0.105922595
0.3008142 -0.051640768 -0.018639361 -0.008248589 -0.3213206 -3.425124e-05 -0.030989515 0.054319933
-0.29181787 -0.1503243 0.035222124 -0.00017943201 -0.40708232 0.11549761 -2.2038996e-05 -0.079137295
0.11052543 0.011591018 -0.05144305 -0.17209655 -0.021322243 0.25705338 -0.25561532 0.12944706
-3.827526e-06 0.009289148 0.030672422 -0.40124664 0.10337317 -0.15675852 -0.10121946 -0.0018009561
0.11272316 0.10128281 0.0014224686 0.43623546 0.17420462 -0.000106681815 0.044207998 -0.00020389963
-0.01947927 -0.2915559 -0.12140579 -0.12965748 0.02052775 -0.032936815 -0.111630656 -0.03929906
-0.21562323 0.0331673 -0.15801811 0.025866246 -3.0211824e-05 0.017014375 -0.24769816 -0.08880872
-0.05601893 -0.0137437135 -0.0007450452 -0.025252502 0.06294584 0.012885932 0.011793493 -0.0004991174
-0.059857264 2.4046906e-06 -0.031254936 -0.018658465 -0.031109292 -0.018275537 0.007962139 3.2165946e-05
-0.0104696695 -0.00475502 4.4074608e-05 0.0001363975 0.019332115 0.004520101 0.012827907 -0.007122488
0.009848824 0.05942567 -0.011237257 0.032688037 -5.47159e-05 0.008232549 -0.0256171 -0.014676742
0.051935505 -0.020532595 0.018555023 -0.0124224285 0.019452615 -0.024292428 0.00071755657 0.06791307
0.05416531 7.0617557e-06 -0.0029160215 -3.6003945e-05 0.007432156 -0.034416568 -0.013430358 0.007432082
0.0071659093 0.0018339526 -0.01118028 -0.058861833 -0.024278764 0.049075313 -0.037537698 -0.007376261
-3.8064181e-06 0.019855497 -0.0063080504 -0.028442087 0.01629941 0.024665993 -0.009590157 -0.01162195
-0.03966775 -0.008513015 -0.00860293 0.0016508446 -0.00032722493 2.0800624e-06 0.045369543 0.009205468
0.013187116 0.01562545 0.0020692581 -5.741414e-05 0.050917864 0.0076282416 0.00010623051 -0.0006914124
0.0040049395 -0.0040155253 -0.006007718 0.005316383 -0.005752096 -0.00871315 0.062313467 0.023713809
7.890335e-05 -0.001328983 -0.019243062 0.06620682 -0.024787819 0.048781034 -0.002436259 0.005722152
-0.0020050616 0.031347927 -6.738028e-06 -0.04701321 0.049102347 2.9096748e-06 -0.013184855 3.662126e-05
-0.0029876379 0.01591747 0.0025814816 -0.01657333 -0.0030308152 -0.0076115257 0.00027612658 -0.0009865576
0.010216019 -0.023324816 0.005741817 0.10504035 1.7454782e-05 -0.023338733 0.0028146056 -0.073181994
-0.13295043 -0.006300834 -0.008540195 -0.064361244 0.18305534 0.03845667 0.011196536 0.002419689
-0.15772413 -2.521063e-05 -0.1056834 0.032216933 -0.101582035 0.059104256 0.007537889 5.47611e-05
00000000: 11f3 3eb6 47f8 22b7 0ef8 37b7 0ab7 a6b7
00000010: a9f6 05b8 6d12 5bb7 d8f2 15b7 2946 32b6
00000020: f73f 6cb8 d403 d3b0 1998 adb6 93f6 97b5
00000030: e407 c136 ed53 8837 c9bd eb35 bf17 38b2
00000040: cf69 eeb5 19e3 10b5 d845 7fb1 2c8f c9b7
00000050: 6381 ae36 51f6 c7b6 5136 4cb7 7e06 c1b5
00000060: 890a 08b7 cb7f ca36 81f2 ed34 fe5d 95b7
00000070: 4b36 0033 5470 15b7 88bb 55b7 655d 0d37
00000080: d907 e5b7 5a03 c3b7 8b58 9d34 fc43 6a36
00000090: 2348 8fb4 2f49 7db7 2014 b7b4 54c6 2cb8
000000a0: fa97 50b8 b37a 67b0 055f acb7 082c 91b0
000000b0: c3e2 f5b6 a17e b6b6 69a0 3d35 5817 f5b7
000000c0: a9df 0cb6 4653 6fb7 4ec7 d4b6 39ed 58b6
000000d0: 1f90 8237 710b 87b8 c388 9836 c097 0e37
000000e0: fc14 5bb0 de2a 11b7 f212 75b5 b6c4 4ab8
000000f0: 9274 a33d fc7e 83bd 3c54 883d f2ed d83d
00000100: 5204 9a3e 4585 53bd 93b1 98bc 1725 07bc
00000110: 2284 a4be fda8 0fb8 b9dd fdbc 947e 5e3d
00000120: 2769 95be 9dee 19be 1345 103d ea25 3cb9
00000130: 186d d0be 038a ec3d 62e0 b8b7 bc12 a2bd
00000140: 285b e23d 41e8 3d3c f3b5 52bd 143a 30be
00000150: fcab aebc 809c 833e 03e0 82be c58d 043e
00000160: 336e 80b6 8331 183c bb44 fb3c 3370 cdbe
00000170: 50b5 d33d 4e85 20be 264c cfbd 0f0e ecba
00000180: 66db e63d 5d6d cf3d 2072 ba3a 415a df3e
00000190: b262 323e 5dba dfb8 7213 353d e4cd 55b9
000001a0: fd92 9fbc d146 95be 99a3 f8bd eec4 04be
000001b0: d029 a83c c1e8 06bd 9d9e e4bd 0df8 20bd
000001c0: 56cc 5cbe 6fda 073d 80cf 21be 73e5 d33c
000001d0: 666f fdb7 bb61 8b3c 96a4 7dbe 59e1 b5bd
000001e0: 1b74 65bd 502d 61bc 234f 43ba 56de cebc
000001f0: c0e9 803d 841f 533c 7f39 413c 34d7 02ba
00000200: e42c 75bd 4560 2136 2d05 00bd a3d9 98bc
00000210: ead8 febc 94b6 95bc a273 023c ece9 0638
00000220: fa88 2bbc 00d0 9bbb c0dc 3838 ed05 0f39
00000230: 625e 9e3c 5b1d 943b 242c 523c c363 e9bb
00000240: f65c 213c 5568 733d 791c 38bc e4e3 053d
00000250: c07e 65b8 d0e1 063c f4da d1bc b876 70bc
00000260: 53ba 543d f933 a8bc b400 983c 7187 4bbc
00000270: 175b 9f3c ea00 c7bc 681a 3c3a 0216 8b3d
00000280: 72dc 5d3d 05f4 ec36 b91a 3fbb f102 17b8
00000290: 7189 f33b 63f8 0cbd 010b 5cbc d388 f33b
000002a0: 01d0 ea3b 3d61 f03a 7e2d 37bc 1b19 71bd
000002b0: 42e4 c6bc 3203 493d 21c1 19bd 90b4 f1bb
000002c0: c471 7fb6 ffa7 a23c c3b3 cebb 61ff e8bc
000002d0: 5786 853c 5610 ca3c 0920 1dbc fe69 3ebc
000002e0: a77a 22bd 2c7a 0bbc 4ef3 0cbc 2761 d83a
000002f0: 638f abb9 3397 0b36 6ad5 393d 88d2 163c
00000300: c60e 583c f200 803c 649c 073b f7cf 70b8
00000310: 408f 503d 54f6 f93b 12c8 de38 e73f 35ba
00000320: de3b 833b ab94 83bb 64dc c4bb 0e35 ae3b
00000330: 147c bcbb 9ac1 0ebc 683c 7f3d 7643 c23c
00000340: ea78 a538 4531 aeba a0a3 9dbc 7197 873d
00000350: d30f cbbc 9fce 473d a5a9 1fbb e480 bb3b
00000360: 5a67 03bb af66 003d 3817 e2b6 ec90 40bd
00000370: 8b1f 493d d543 4336 4a05 58bc c799 1938
00000380: 3fcc 43bb 5b65 823c 132e 293b cbc4 87bc
00000390: a4a0 46bb 1b6a f9bb 15c5 9039 614f 81ba
000003a0: 1761 273c af13 bfbc da25 bc3b 651f d73d
000003b0: dc6b 9237 df30 bfbc 3f75 383b 71e0 95bd
000003c0: 2824 08be 3a77 cebb 2dec 0bbc d4cf 83bd
000003d0: dc72 3b3e be84 1d3d ad71 373c a593 1e3b
000003e0: 6f82 21be 6a7b d3b7 8a70 d8bd e7f5 033d
000003f0: 3e0a d0bd 4e17 723d 6500 f73b 49af 6538

bias f4 [60]
-4.246952e-05 -0.019327074 0.0046062972 -0.03133151 -0.044821143 -0.04190243 -0.07458418 1.5158832e-06
-0.07387317 0.08459774 0.0042231153 -0.029466564 -0.016827622 -1.4065596e-05 -0.06220828 -0.00013720656
-4.624621e-06 -3.241948e-08 0.09522606 0.035040494 -6.8452275e-05 0.026352093 -0.07767983 0.04649809
-0.07909141 9.2957566e-07 -1.30817825e-05 -9.0044414e-05 -2.0740279e-05 -1.6027256e-05 0.10910523 0.046327785
-1.3510872e-05 -0.061228935 -3.749908e-06 0.17343527 0.015912268 -6.992037e-08 -0.08820885 0.0058572344
-0.04120031 -2.4092171e-06 -3.0369796e-05 0.034343872 -1.9840625e-05 -4.921662e-05 0.0691496 0.046993725
0.0021853761 0.026293507 -1.3571865e-05 0.032275487 0.047299292 0.024874657 -0.056293584 -0.007263463
0.015590093 -0.0015426537 0.11955193 0.109550446
00000000: 4d21 32b8 d053 9ebc 6cf0 963b 7855 00bd
00000010: 6096 37bd e2a1 2bbd 97bf 98bd 5a75 cb35
00000020: d14a 97bd 9441 ad3d 0f62 8a3b dd63 f1bc
00000030: 15da 89bc 46fb 6bb7 1cce 7ebd 1bdf 0fb9
00000040: 312d 9bb6 983d 0bb3 e105 c33d 9f86 0f3d
00000050: 098e 8fb8 58e0 d73c 9a16 9fbd c874 3e3d
00000060: adfa a1bd f487 7935 d479 5bb7 3ad6 bcb8
00000070: 69fb adb7 4572 86b7 9072 df3d 34c2 3d3d
00000080: c1ac 62b7 31cb 7abd eea6 7bb6 0499 313e
00000090: 725a 823c 2127 96b3 d7a6 b4bd 0bee bf3b
000000a0: a8c1 28bd 09ae 21b6 a4c2 feb7 29ac 0c3d
000000b0: 6b6f a6b7 f16d 4eb8 4e9e 8d3d 7e7c 403d
000000c0: 8738 0f3b 7b65 d73c b7b2 63b7 4d33 043d
000000d0: e7bc 413d f0c5 cb3c 1a94 66bd 5802 eebb
000000e0: 976d 7f3c de32 caba a4d7 f43d fc5b e03d

weight f4 [3, 60]
4.4569748e-05 -1.2903992 -0.16395272 0.107533835 -0.3535561 -0.19480135 -0.37588713 -7.3391816e-06
0.5444711 -0.49933407 0.3827748 -0.6454815 0.00031638567 4.8409385e-07 0.094568595 -4.2856005e-05
-2.3694442e-06 3.0919368e-06 0.73706216 -1.1081053 -6.5853535e-05 -0.26705378 0.50452214 1.2327503
1.3057799 -3.8066416e-06 9.6734275e-06 5.200668e-06 -1.04773555e-07 0.0001222779 1.1471876 0.2151282
4.0087238e-05 0.25325033 -5.8086403e-06 0.8441823 -0.47447312 -9.2781187e-07 0.80111885 -0.16011798
0.80305105 9.971355e-06 3.7564703e-06 -0.96356285 1.4508648e-05 2.5708574e-05 0.12106451 0.1939523
-0.097675055 -0.11212522 8.525794e-06 1.1505224 0.15543184 -0.10639486 0.0034846095 -0.15448831
-0.84253126 0.62464535 -1.1212126 -0.18236163 -5.747501e-05 -0.08659093 0.03401069 -0.09916616
0.021426996 1.6036507 0.6622285 -3.8659564e-06 -0.3924231 0.62888265 -0.27052268 1.0201615
-0.18483157 -2.8586917e-05 0.10631832 -0.00032274897 -1.0231071e-05 2.9641838e-06 -1.0764605 -0.6497066
0.000519597 0.037358735 -0.68115187 -0.14506859 -0.24345069 -3.435446e-06 -3.1329804e-05 -5.506252e-05
-4.8302678e-05 -0.00039724458 -0.41727778 0.6279225 8.572546e-05 -0.041546594 -1.732021e-05 0.12985948
-0.35741985 -1.2738342e-06 -0.29875368 0.030942595 -0.616868 7.206216e-06 8.7919936e-05 0.47226688
-5.0881885e-05 -0.00011061165 -0.9428847 -0.13780217 0.016455168 0.72159046 -6.467871e-06 1.0655395
1.0133755 -0.124946244 -0.89705694 -0.654631 0.28026858 -0.20608604 0.8025819 -0.2685447
8.019162e-05 0.16567416 0.13126333 0.00813337 0.34145775 -0.7947909 -0.4719026 -2.232447e-06
-0.00096409355 -0.347493 0.113125026 -0.6540633 -0.20870383 -2.8028628e-06 0.5033579 0.00024296778
4.1368157e-06 2.8706033e-06 0.70321774 0.3224596 -0.00018807413 0.29457217 0.0019325064 -0.5791481
-0.62112546 -2.6153932e-06 3.9304755e-06 4.4295473e-05 7.4714594e-06 3.4258333e-05 1.0535223 -0.020063026
3.6998797e-06 -1.0621668 -4.667891e-06 -0.84893334 -0.7051131 -7.037857e-07 -0.24441203 0.10206679
-0.4800237 4.4236567e-06 -8.076212e-05 0.91459674 1.541626e-05 5.5330715e-05 -0.4063513 0.5761427
0.07489512 0.1562793 4.544782e-06 -0.20445792 -0.2709275 0.26460522 0.028391039 0.34218323
0.5939522 0.32272753 1.0778478 -0.9978777
00000000: 67f0 3a38 cd2b a5bf 39e3 27be b33a dc3d
00000010: 4e05 b5be 017a 47be 4774 c0be 1743 f6b6
00000020: 7562 0b3f b7a8 ffbe 0ffb c33e 473e 25bf
00000030: 91e0 a539 adf2 0135 2ead c13d 49c0 33b8
00000040: be02 1fb6 127f 4f36 1bb0 3c3f 65d6 8dbf
00000050: d91a 8ab8 46bb 88be 5d28 013f c3ca 9d3f
00000060: cc23 a73f 9b75 7fb6 0e4b 2237 6681 ae36
00000070: dfff e0b3 b937 0039 0bd7 923f 914a 5c3e
00000080: 5823 2838 07aa 813e d7e7 c2b6 551c 583f
00000090: 24ee f2be bf0e 79b5 2016 4d3f f8f5 23be
000000a0: c194 4d3f a54a 2737 ab17 7c36 0eac 76bf
000000b0: 2b6a 7337 bea8 d737 abf0 f73d 6f9b 463e
000000c0: dc09 c8bd e8a1 e5bd 020a 0f37 5144 933f
000000d0: 8629 1f3e 8ce5 d9bd 0c5e 643b 2f32 1ebe
000000e0: 21b0 57bf c2e8 1f3f e583 8fbf 02bd 3abe
000000f0: 5211 71b8 9656 b1bd cb4e 0b3d a117 cbbd
00000100: ab87 af3c 6d44 cd3f cf87 293f 50b8 81b6
00000110: aeeb c8be 74fe 203f f381 8abe a794 823f
00000120: 7d44 3dbe f0cd efb7 6bbd d93d a236 a9b9
00000130: 1ea6 2bb7 4aec 4636 75c9 89bf 2c53 26bf
00000140: 9035 083a 7905 193d f85f 2ebf dc8c 14be
00000150: 234b 79be 838c 66b6 1f68 03b8 eef2 66b8
00000160: 9b98 4ab8 4445 d0b9 6fa5 d5be 87bf 203f
00000170: 82c7 b338 c32c 2abd de4a 91b7 e2f9 043e
00000180: bcff b6be 9cf8 aab5 3ef6 98be 537b fd3c
00000190: 10eb 1dbf edcc f136 a861 b838 f7cc f13e
000001a0: 026a 55b8 2df8 e7b8 e460 71bf 031c 0dbe
000001b0: fdcc 863c 27ba 383f 9706 d9b6 9963 883f
000001c0: 4ab6 813f d1e3 ffbd 86a5 65bf e695 27bf
000001d0: 5d7f 8f3e 3808 53be 0276 4d3f b17e 89be
000001e0: 8c2c a838 7da6 293e e569 063e d441 053c
000001f0: 8dd3 ae3e 6b77 4bbf 389d f1be 26d1 15b6
00000200: 39bb 7cba 9aea b1be 18ae e73d b170 27bf
00000210: 75b6 55be d118 3cb6 10dc 003f 2bc5 7e39
00000220: face 8a36 97a4 4036 1406 343f 6d19 a53e
00000230: c435 45b9 2ad2 963e 284c fd3a 0d43 14bf
00000240: 1402 1fbf 1d84 2fb6 87e2 8336 e7c9 3938
00000250: 59b3 fa36 9bb0 0f38 d2d9 863f 375b a4bc
00000260: 734b 7836 15f5 87bf e1a0 9cb6 b253 59bf
00000270: 4b82 34bf c9eb 3cb5 2647 7abe 6508 d13d
00000280: abc5 f5be ec6e 9436 d55e a9b8 0323 6a3f
00000290: 2b52 8137 e712 6838 470d d0be 177e 133f
000002a0: 9d62 993d ae07 203e 617f 9836 6b5d 51be
000002b0: 02b7 8abe 567a 873e 5394 e83c a432 af3e
000002c0: 400d 183f 8b3c a53e ebf6 893f ea74 7fbf

bias f4 [3]
-0.08033943 0.10191944 0.03424172
00000000: 0089 a4bd 24bb d03d 0c41 0c3d
